AI_Challenges/week02/multiclass_model.bin (torch, 1678 bytes, 2 tensors)

linear.weight f4 [5, 5]
9.874361 -4.2061553 -4.2072325 -4.2611446 -4.0884547 -4.410685 10.012673 -4.3487115
-4.231108 -4.0745497 -4.336308 -4.212286 10.15454 -4.24561 -3.950053 -4.261786
-4.30784 -4.103976 10.2171955 -3.9011908 -4.4615955 -4.2043 -4.147097 -4.106066
10.34291
00000000: 62fd 1d41 d398 86c0 a6a1 86c0 4c5b 88c0
00000010: 9fd4 82c0 5524 8dc0 e933 2041 a528 8bc0
00000020: 3d65 87c0 b662 82c0 09c3 8ac0 0ccb 86c0
00000030: ff78 2241 0adc 87c0 abcd 7cc0 8d60 88c0
00000040: d3d9 89c0 c553 83c0 a279 2341 1cad 79c0
00000050: 64c5 8ec0 a089 86c0 05b5 84c0 e564 83c0
00000060: 8f7c 2541

linear.bias f4 [5]
-6.571552e-05 -0.051401086 0.04304529 0.035230823 -0.043044776
00000000: c0d0 89b8 f289 52bd 4250 303d 324e 103d
00000010: b84f 30bd
